model/model.pth (torch, 16787 bytes, 4 tensors)

linear1.weight f4 [256, 11]
00000000: a17d 92be c3ac 2dbc bcc9 5ebe f079 3b3e
00000010: 3af8 413e 81ff 61be bea1 a23e cd80 28bd
00000020: 5334 923d 4b87 babd 2836 aa3d e301 77be
00000030: 58d5 c83e 2b77 43be e72f 833e 6da2 28be
00000040: b846 2bbe daf5 69be 8db3 a2bd a82b 28be
00000050: 3feb 8b3e b206 85bd d14a bf3d 8d23 853e
00000060: c320 b7be 4c93 303a bfe2 523e 90d5 553e
00000070: 4d3a 643d 1a6e 123e caf6 6cbe b556 a03c
00000080: d8ae 39be e309 40be 5375 8dbe cecd 66bb
00000090: b7c1 223e 4474 33be 7d36 56be 4e2d 53be
000000a0: a935 10be 5464 863e 27ce db3c f6c9 f03b
000000b0: 7869 86be f0ba d13e b8d9 6d3e 9554 2abe
000000c0: 9880 54be dea7 0e3e 0fba 90be 108e 6bbe
000000d0: c4b0 cfbd 2bbd 7b3e d488 27be d142 abbe
000000e0: b5fc 48be 06f7 6d3c 918b 643d 0abd 51be
000000f0: e9d8 143e 4178 0cbe 7640 09bc 1ba3 b13c
00000100: 3196 1e3e c4a5 cb3d 628d 193e 46b3 d03e
00000110: 1b35 4f3e 5c71 2d3e d570 87be c848 de3d
00000120: 90fe 7f3d c49b 873e f41a 933e 4a8c 233d
00000130: f9ca 13be afd1 8fbe a5bb 5fbe b5c6 223e
00000140: 3793 bdbc 3d60 f6bd 6583 adbc 2515 c83c
00000150: 6048 94be 186f 343e 90ac 29be 34d8 92bd
00000160: a656 ae3e 1c2c 70bc d5ec 763e 4a9f ad3d
00000170: 51ba 983e 39ee 35bc 239b be3e 4f19 713e
00000180: 5557 85be 804b 39be f5aa 46bd 2755 e73c
00000190: 425a f53c 3044 babe f75d fe3d ca98 f5bd
000001a0: 130f e9bd ce5b 41bd bb96 923d af43 c23d
000001b0: 6eae 063e 044a 533e f87a 01bd 97a8 d93d
000001c0: 5bbe 993e 5439 4dbe f42d a43e 401e 41bd
000001d0: 7a81 ca3d 5947 7cbd 4b6d 273d bec2 423e
000001e0: 5b28 8c3e c3e8 cc3c d9d8 0fbd 596a 1fbd
000001f0: 5b4b 97be b1d2 a0be 3333 41bc d5c5 3a3e
00000200: bdc1 bfbd d8f0 483e bba7 ebbd a852 c43c
00000210: daeb a5bd 5cb1 38bc 9018 28be 0b98 59bd
00000220: 7411 9a3c cf16 653e 542d a93d aa23 51be
00000230: bf51 623e 6bc0 99be 169b 92be 8706 fb3d
00000240: 2bd5 ee3e 1f7f 24be a9f7 aebd c72d 923e
00000250: ac10 fabd 05eb c4be ecd4 453e c07a 84bc
00000260: 6475 afbd 28c1 31bb 84db c4bd acb5 ef3d
00000270: f745 8a3e 6043 7a3c 8d91 863e b67a 843e
00000280: ab1f a93d 3201 13be 16cc 193e cc33 07be
00000290: 06b5 8d3e 8aed 883e 2589 5fbd 2162 063e
000002a0: ab49 f03d 3fc5 0d3e 1494 c23d e925 2d3e
000002b0: 9d70 203e c592 753c 8a61 883e e10f 6bbd
000002c0: e792 a03e 4040 d2bc 6f67 88be 6747 32be
000002d0: 5973 5fbd e9b6 013e da7f 483b dc17 86be
000002e0: 7813 b63d 3762 0e3e 5d7f b03c 01d1 c33e
000002f0: 91f0 003e a399 083e dd68 773e 74d7 163d
00000300: a7fd 4dbe 5948 173e d0a5 15be 4328 1abd
00000310: 8bd2 883e d5f6 d53d 26c3 febd 8899 f43e
00000320: 3a32 92be 5c50 b8bd 9fe3 f038 a917 8abe
00000330: f6f3 5c3e 726b d1bb 2d63 d0bd bbf9 99bd
00000340: 20e6 f5bd fdea 3a3e 18ce 853d 3982 bd3e
00000350: 451c 653d 3cdc 8e3e c432 91bc 9406 ebbc
00000360: 34b9 24be 19d0 7e3e a5c8 913e 7af7 713e
00000370: d8c5 ca3e cac2 9bbe a835 903e 5eee adbd
00000380: a1af b13d 85c2 90bd ba2e 71be 8230 dfbd
00000390: affb 5bbd 215f 223e a31c c8bd 9d62 703e
000003a0: 50ea ae3e b63f 313e 915f 193e f67f 26be
000003b0: 3281 873e eb42 063e bb23 c23d cefc 40be
000003c0: 86a8 adbd 089e c33e 7874 a93d 1afa c0be
000003d0: 17fe 813e f77d 623e aed1 a7bd 58c8 85bb
000003e0: 8ee0 c73d 8937 c9bd 6407 ecbd 9721 1c3e
000003f0: 7722 3a3e 5ca2 623b 785d 043f afe3 afbe
-0.28611472 -0.010600272 -0.21756643 0.18308234 0.18942347 -0.22070123 0.31764024 -0.04113846
0.07138886 -0.09107836 0.08311111 -0.24121813 0.39225268 -0.19088428 0.25622484 -0.1646821
-0.16726196 -0.22847691 -0.07944403 -0.16422904 0.27327916 -0.06495418 0.09340442 0.26003686
-0.35767183 0.0006735816 0.2059431 0.20882249 0.055719662 0.14299813 -0.23141018 0.019572595
-0.18133104 -0.18753771 -0.27628574 -0.0035217884 0.15894209 -0.1752482 -0.20919223 -0.20622751
-0.1408297 0.2624842 0.0268317 0.0073482944 -0.2625234 0.40962934 0.23227584 -0.16633828
-0.2075218 0.13931224 -0.2826695 -0.23003411 -0.10141137 0.2458388 -0.1636079 -0.33449414
-0.1962765 0.014524227 0.055797163 -0.20482269 0.1453587 -0.13717748 -0.008377185 0.02168422
0.15486981 0.09943727 0.1499534 0.40761775 0.20235102 0.16937774 -0.26453272 0.10853726
0.06249863 0.26486027 0.287315 0.039928712 -0.14432897 -0.28089663 -0.21848924 0.15896113
-0.023141487 -0.12030075 -0.021180818 0.024424145 -0.28961468 0.17620504 -0.16569734 -0.07170144
0.34050483 -0.014658954 0.24113782 0.084776476 0.29829648 -0.01110416 0.37227735 0.2354481
-0.26043192 -0.18095207 -0.04850288 0.028238846 0.029950265 -0.36380148 0.12420266 -0.11992033
-0.11379828 -0.047206692 0.07157656 0.09485566 0.13152477 0.20633703 -0.031611413 0.10627859
0.30028042 -0.200414 0.3206631 -0.04714799 0.09887977 -0.06159148 0.040875714 0.19019601
0.2737454 0.025013333 -0.03511891 -0.03891978 -0.2954968 -0.31410745 -0.011791992 0.1823953
-0.093631245 0.19623125 -0.115066014 0.023965195 -0.08101626 -0.0112727545 -0.1641562 -0.053123515
0.01880715 0.22371982 0.08260599 -0.20423761 0.22101496 -0.30029616 -0.28633946 0.12257104
0.4664701 -0.16064118 -0.08543331 0.2855055 -0.12210211 -0.38460556 0.19319504 -0.016171813
-0.08567312 -0.0027123187 -0.09612182 0.11704573 0.27006504 0.0152748525 0.2628292 0.2587487
0.08257993 -0.14355925 0.15019259 -0.13203353 0.27677172 0.26743728 -0.05457415 0.1312337
0.11732801 0.13844775 0.095009 0.16908993 0.15667959 0.014988606 0.26636916 -0.05738819
0.31362078 -0.025665402 -0.26641414 -0.1741005 -0.054553363 0.12667431 0.0030593784 -0.26190078
0.08890432 0.13904653 0.021545107 0.38245395 0.12591769 0.13339858 0.24161096 0.036826566
-0.20116292 0.14773692 -0.14614034 -0.037636053 0.26723132 0.1044747 -0.12439565 0.47773385
-0.28553945 -0.08999702 0.000114864895 -0.26971176 0.21577439 -0.0063909823 -0.10175166 -0.075183354
-0.120067835 0.18253703 0.0653345 0.37013415 0.055935163 0.279024 -0.017724402 -0.02868966
-0.16086274 0.2488407 0.28473392 0.23629561 0.39604068 -0.3042205 0.28165936 -0.084927306
0.08676077 -0.07068352 -0.23552981 -0.10897924 -0.05370682 0.15856601 -0.09771087 0.23475118
0.3416314 0.1730946 0.14977862 -0.1625975 0.26465756 0.13111465 0.09479471 -0.18846437
-0.08479409 0.38206506 0.08274168 -0.37690812 0.25389168 0.22118364 -0.0819429 -0.0040827207
0.09759627 -0.098250456 -0.11524847 0.15247189 0.1817721 0.0034581637 0.5170512 -0.34353396

linear1.bias f4 [256]
00000000: 9ea8 973d 03ff 0c3d d597 1a3e 040f aabe
00000010: e056 fdbc 4102 7b3e 82b2 003d 2d21 263e
00000020: 11cf 2bbe de0d 0a3e 14ed 3b3c b850 2c3c
00000030: 51d9 2bbc da0a 863e 73e3 3cbd 95cd c03d
00000040: 2315 c53d 8fa0 ba3d 13b8 6e3e 713f 833d
00000050: 3640 a13e 23d0 1ebe 3ec8 2f3b 183f a83d
00000060: 62e8 6f3e 87d7 b1bd 3446 ad3e c8d6 603e
00000070: 26ef 993e bebe 85bd 8b79 51be c42b 213e
00000080: 61da 96bd b1e6 58be f0f5 0ebe 7c27 a2be
00000090: 1518 2ebe 5e69 82be 1f63 713e 996c 6c3e
000000a0: eeb2 70bd 3c8a 91be 9534 373e 5060 173d
000000b0: add6 843e 0e96 b13d cfbb 4e3e 9394 81bc
000000c0: 4c90 8c3c e618 3bbe 09dc 4cbc 6906 a53e
000000d0: fd05 373d 3437 03be d2e8 5f3e 6f12 7bbe
000000e0: a0f0 69bd f8b0 a43e f275 3abe 3c25 693e
000000f0: 063b 0c3e 39b9 563e f076 1dbe 246f a6bd
00000100: 434d 3e3e de43 2c3e fe56 263e 083b afbe
00000110: 89da 733e 8204 e03b fb09 25be 03a9 0ebe
00000120: 128c 953e 760f 3bbe 120d 07bd 49d1 59be
00000130: 1538 c33d f8e4 f5bd 3619 2e3e b067 78be
00000140: 33eb 663e fb56 20be 0d60 d43c 3ea9 ddbc
00000150: e9f4 bd3d cf0d 953e e679 9bbb 6e9e a63c
00000160: 7480 503e 25c4 1abe 529a 953d 629b 293e
00000170: 6bce a73e d52b f2bc 86bf 71be 582d 82be
00000180: c071 2dbe 8c10 5bbe 3252 4f3d a134 fa3d
00000190: 3c19 8d3e bf49 303e 8236 a13d 5fc2 9c3e
000001a0: 3cd4 d2b8 1764 283e 2e68 8d3e db21 453e
000001b0: 826e b43e 07b9 35be dd70 89be 64db eb3c
000001c0: ee0f a43e 6863 963e cd57 88bd e168 a4be
000001d0: 67fb a73e a831 9dbe 9a5f c3bd daeb 91bd
000001e0: 6652 eb3d ce38 983d 1bd1 e0bd 028e 9c3e
000001f0: 9a20 e23d 0490 ac3d fca3 ac3e 2162 973d
00000200: c992 8bbe b4bd 1fbd 1986 4f3e 5c49 79bd
00000210: 79c8 853d b2ff 32be cbda 2b3e 41ae a6be
00000220: 5f2e 8e3d 0b42 99bc e502 d1bc a5ea 81be
00000230: 1534 0a3e bca4 7d3d dd7e 5dba c1e1 573e
00000240: 18a3 763e 424c 0cbe cf78 303e 86d6 0abd
00000250: 1b46 3fbd 184e a2bd 408f 4c3e a8cb 553c
00000260: a74a f8bd 105e 943c 8a80 223e 2a69 72bd
00000270: 6a96 243c 492e 39bc 9c41 583e 2bf6 2c3e
00000280: acd9 a0bb 8514 8cbe 85be 42be 1203 4a3d
00000290: e501 04bc b6f5 0f3d 91c2 d73d 23eb 88bc
000002a0: d0bc f2bc 1bef 69be 7395 65bb c56f ba3d
000002b0: 0db4 73bc d94b 273e db6a 48be f661 653e
000002c0: 5e1b 073e 53be fb3d ee1a e33d 6988 963e
000002d0: 01c9 5d3d 77db 0f3e 6154 503e 26d9 a4bd
000002e0: b512 84bd 72df 783e 7bd9 83be e552 8bbd
000002f0: 0a5c 4dbe c0b5 a93d 9313 923e 459b a53e
00000300: e586 cc3d 5754 3f3d 62e0 893d 57b3 01be
00000310: 1d8d 62be e216 b0bc ce37 fc3c 7b2d d6bd
00000320: dfb8 813e 4a69 083e d4fb f4bc 4af7 803e
00000330: 7864 0ebb 5347 bc3d 16a9 bf3d 58ac aa3e
00000340: 2cff 803c 9096 7b3e c8ca 023c 0e47 1a3c
00000350: b870 e3bd 6e9b 8a3c 1d52 04be 71a1 2cbc
00000360: 0498 88be f4e2 5a3e 9566 cf3d a017 6fbe
00000370: 427d 443e b42a 65be 9a5c 7c3d ba22 3a3e
00000380: d3a6 11bd 2259 533d 8d74 883e f9b7 17be
00000390: 2b5a 9cba 2291 12be 0859 24bd aeec 3a3d
000003a0: 69a2 5c3d 8f85 fbbd 3a2b 473e 181b 92be
000003b0: 3338 1b3e 3fc2 42be 236d 2cbe 0ce3 0ebe
000003c0: ce2d 913e d533 2dbe d4cf e83d bfb7 82be
000003d0: acda a1bd 52e3 d83d 0394 8bbe 582d cc3d
000003e0: d840 6fbe 73de 4e3e 8b41 af3d cd2c 603e
000003f0: cd2b 923e 5984 483e c260 79bd 72b4 9b3d
0.07405208 0.034422886 0.15096982 -0.3321458 -0.030925214 0.24512579 0.03142024 0.16223593
-0.16778208 0.13481852 0.011470098 0.010517292 -0.010488824 0.26180154 -0.04611535 0.09414212
0.09623172 0.09112655 0.23312406 0.06408585 0.31494302 -0.15509085 0.0026822235 0.08215159
0.23428491 -0.08683687 0.33842623 0.21956933 0.30065268 -0.06530522 -0.20456521 0.15739352
-0.07365871 -0.21181752 -0.13961005 -0.3167075 -0.17001374 -0.25471014 0.23572968 0.23088302
-0.05876439 -0.28425777 0.17891152 0.036957085 0.25945035 0.08671199 0.20188831 -0.015817916
0.01715865 -0.18271217 -0.012503632 0.32231453 0.044683445 -0.12814027 0.21866158 -0.2451875
-0.057114244 0.32166266 -0.18209055 0.2276811 0.1369439 0.20969094 -0.15377402 -0.08126667
0.1858416 0.16822764 0.16244122 -0.34224725 0.23813833 0.006836475 -0.16117088 -0.1393166
0.29208428 -0.18267617 -0.03297145 -0.21271242 0.09532181 -0.12006563 0.17001805 -0.24258304
0.22550659 -0.1565818 0.025924707 -0.02705824 0.092752285 0.29112098 -0.004744756 0.020339217
0.20361501 -0.15113886 0.07304825 0.1656318 0.32774672 -0.029561916 -0.23608217 -0.2542522
-0.16937923 -0.21393031 0.050615497 0.122170694 0.27558315 0.17215632 0.07871725 0.30617043
-0.00010053112 0.16444431 0.27618545 0.19251196 0.3524056 -0.17746364 -0.2684392 0.028791137
0.32043403 0.29372716 -0.06657372 -0.32111266 0.32808992 -0.30701947 -0.09539719 -0.07125063
0.11490326 0.0743271 -0.10977384 0.30577093 0.110413745 0.08425906 0.3371886 0.073917635
-0.27260426 -0.038999274 0.20265998 -0.060860977 0.06532378 -0.17480353 0.16782682 -0.3255482
0.06942438 -0.01870825 -0.025514076 -0.25374332 0.1349643 0.06192468 -0.0008449385 0.21082212
0.24085653 -0.13700965 0.17233585 -0.03389599 -0.046697717 -0.079250515 0.1997652 0.013049044
-0.12123614 0.018111259 0.15869346 -0.059182324 0.010045627 -0.011302539 0.21118778 0.1689078
-0.004908761 -0.27359405 -0.1901799 0.049319334 -0.008057092 0.035146438 0.105351575 -0.016713684
-0.029631048 -0.22845118 -0.0035031706 0.091033496 -0.01487447 0.16337527 -0.19572012 0.2240065
0.13194034 0.12292161 0.11089121 0.29400948 0.05414677 0.14048563 0.20344688 -0.0804923
-0.064488806 0.24303988 -0.25751862 -0.0680292 -0.20054641 0.08286619 0.2853056 0.32345024
0.099866666 0.046711292 0.06732251 -0.12666069 -0.22124143 -0.021495286 0.030788328 -0.104578935
0.25336358 0.13321415 -0.029905237 0.25188667 -0.0021727365 0.091932915 0.093584225 0.33334613
0.015746675 0.24569154 0.007982917 0.009416355 -0.11105484 0.016919818 -0.12921949 -0.0105365375
-0.2667848 0.21375638 0.10126988 -0.23348856 0.19188407 -0.22379571 0.06161175 0.1817731
-0.035559487 0.051598676 0.2665142 -0.14816274 -0.0011928728 -0.14313176 -0.04012397 0.04563587
0.053865824 -0.12281334 0.19450083 -0.28536296 0.15158157 -0.19019412 -0.16838507 -0.13953799
0.2835526 -0.16914304 0.11367765 -0.25530812 -0.079030365 0.10590233 -0.2726136 0.09969586
-0.2336458 0.20202045 0.08557423 0.2189209 0.28549042 0.19581737 -0.06088329 0.076027766

linear2.weight f4 [3, 256]
00000000: 5345 f63d 6449 043e bdad 89bd 03df b63c
00000010: 9b1e f43b ca13 863d 1c2e e73c 9f6c 883d
00000020: 8f02 d1bd 00eb 76b9 8099 a03a e457 1c3d
00000030: cfed b83b 393f d1bc 888b 3d3c 3a84 b4bd
00000040: e10f 1bbd 7a4e b1bd 17e0 ad3d e378 a1bd
00000050: 8378 afbd fc1f d3bd e0fd 8e3c 0f00 373d
00000060: dc3d 263d eb9e 8dbc 96b0 433e d4b4 263d
00000070: 5007 fd3c afca 4f3e c541 053c a0ab cd3d
00000080: e675 89bd 93b0 a23c 8a49 873e dc58 183d
00000090: e503 c43d d9d3 38bd 7347 b9bd aa51 643e
000000a0: 0091 acbc e0ef 2f3c 6caa 87bd 5e12 0f3e
000000b0: d4e3 38bd a404 d53c 4f2e a63d 0de1 ab3d
000000c0: 1af1 eb3c 6b7b edbd ad02 8b39 f9df 7dbd
000000d0: be77 b5bc f3f0 893b 2e49 d8bd d6ad 64bd
000000e0: 59c9 193e f2ba 25bc 97ae 503d ab7c 943d
000000f0: e8c0 0ebd d57b 713d fa2b b33d f09c fabd
00000100: bf40 4dbd ace4 4ebd cd3e f8bd 1829 40bb
00000110: e2fa 46bd 6ee7 94bc 2291 fbbd ec3e 643d
00000120: 9d15 d4bd 61b2 52bd b0c2 9c3d bab2 633e
00000130: c81b cbbd a9c0 263c e9df 333e c43f 1a3c
00000140: 6a2d a2bd 5505 b439 d5c8 8cbd 642e e03b
00000150: d26d 62bb 7683 6c3c 69a3 eebc 16e2 dd3d
00000160: a3da debc 6b4e c1bc a5b9 b0bd f6bd d33d
00000170: ad68 db3c 8f8e 92bd ef46 c4bd 384f 093d
00000180: 6833 f5bc d715 b93d 53b7 9b3d 7947 df3c
00000190: 51e1 18bd 4693 5a3c bee9 87bd 10fa e03b
000001a0: 53c0 47bc 2cd5 e9bd 2cd2 c4bb 3a49 ac3d
000001b0: 7d44 b8bd 102e 74bc 0448 213d f7c2 86bd
000001c0: 4cce 9e3b f792 a3ba d9a8 d9bd e8fc b43c
000001d0: f0c9 fbbc 34ce 8abc 48e4 efbd 592f 7abc
000001e0: c67f 17bd de3e 33bb cd2a 333d 98c2 2dbd
000001f0: f9e9 97bc bfa7 c2bd eb62 fb3d d9d0 13bc
00000200: 806d babb 173b 1a3d cd3f 9fbc fb66 fb3b
00000210: 83dc 833c 55d6 bbbd 1607 85bd 309d 0ebc
00000220: f2d6 493d 2691 0fbe 2517 51bd cada d33c
00000230: 105c 45bd 16d7 08bc 8c63 973d 7cd8 8c3d
00000240: 2fd4 b83d 964f b63c 8e03 99bd e1fc 493d
00000250: 5dc5 0e3e 51f9 7dbd 55e9 de3d 53f3 9f3d
00000260: 78b9 16bc 475a dabd 044c b2bd 70b2 9c3d
00000270: 49d0 233d ecef c83d a105 4fbd 9e34 20bd
00000280: 5c31 2ebd 511b da3b 5c87 b8bb fd13 f7bd
00000290: 86d1 f1bc dd5e e1bb 64dd d83a 3620 593d
000002a0: 44d6 a5bc ca63 1fbd 1ec4 02bd 3a43 853e
000002b0: ae1f 133c 4d88 4fbd 8189 fb3d 3367 75bc
000002c0: 6420 923c 83a9 48bd 0a18 ed3c 27cc 69bb
000002d0: 502b 323e ca48 51bc 4ca8 bf3d 562e 993b
000002e0: b5b4 d43c abff 45bc 0837 573c 34da 85bd
000002f0: 51fe a7bc ae26 c6bd 4c7c b3bc 85a4 fa3d
00000300: e7c5 333d f69f f0bc ff8a a1bd d974 23bd
00000310: 035e f5bc 6037 a73d 0474 b7bc dfd2 303d
00000320: 0abf 6bbb 813f e0bc 3697 94bd 9804 863c
00000330: 8d5d 953d 9830 4dbd fc4b 393b 74c3 4dbd
00000340: c6a4 fbbb 9e16 77bd 1955 7e3d 1142 483d
00000350: 55bc 563c 276c 543c 28a2 1abc d24d 263e
00000360: 53f0 13bd 4d2e 273e 416e a33a 83f1 cabb
00000370: cc88 8d3b 4a9b c33c fc57 a0bc c2d1 4dbd
00000380: 1378 123e 2857 e4bb 1ce6 e8bb 5890 a13c
00000390: 6beb a43c 3c0f 723e a99d cebd 3a12 eabd
000003a0: 56fe 9e3b 4a7f 35bc 8b3e 5abd d7cc a1bd
000003b0: 0093 463c 7f70 2b3b 4d92 dabc 5282 cd3c
000003c0: ca1c 55bd a897 ab3d 000b 9bbd 7593 27bd
000003d0: 3254 07be 33f9 893d f0a7 0abc f5d3 153d
000003e0: 80b5 56bc 6bb4 a7bd d4ea 273c f1ba c53d
000003f0: 2c56 7dbc 87c0 673d 87d2 0b3d af7c b13c
0.12024941 0.12918621 -0.06722591 0.022323137 0.0074499375 0.06546743 0.028220229 0.06661343
-0.10205566 -0.00023547933 0.0012252778 0.038169757 0.0056435834 -0.025542842 0.011568911 -0.08814283
-0.03785694 -0.08657546 0.08490007 -0.078843854 -0.08567908 -0.10308835 0.017455041 0.04467779
0.040586337 -0.017287692 0.19110331 0.040699795 0.030887276 0.20292161 0.008133356 0.100425005
-0.067119405 0.019859588 0.26423293 0.037194118 0.09571055 -0.04512391 -0.09046831 0.22296777
-0.021065235 0.010738343 -0.06624302 0.1397185 -0.04513915 0.02600319 0.081143014 0.083925344
0.02880149 -0.11595806 0.0002651414 -0.061981175 -0.022151824 0.0042096316 -0.10560833 -0.055829845
0.15018214 -0.010115372 0.05094775 0.07250341 -0.03485194 0.058955986 0.08748622 -0.12236965
-0.050110575 -0.050511047 -0.12121353 -0.0029321369 -0.048579104 -0.01817676 -0.12283541 0.05572407
-0.10355685 -0.051439647 0.07654321 0.22236148 -0.09917408 0.01017777 0.17565884 0.009414617
-0.07918818 0.00034336248 -0.06874243 0.0068414677 -0.0034550321 0.01443564 -0.029130654 0.10834138
-0.027203863 -0.023596963 -0.08629159 0.103389665 0.026783312 -0.07156097 -0.09583842 0.033522815
-0.029931739 0.09037369 0.07603326 0.02725576 -0.037324253 0.013340777 -0.0663638 0.0068657473
-0.01219185 -0.114176124 -0.0060064998 0.08412404 -0.08997438 -0.01490356 0.03937532 -0.06580155
0.00484637 -0.0012479712 -0.10627908 0.022093251 -0.03073594 -0.016944028 -0.11713463 -0.015270078
-0.03698709 -0.0027350704 0.04374199 -0.042421907 -0.018544184 -0.09504651 0.122747265 -0.009021961
-0.005689323 0.03765401 -0.019439602 0.0076721883 0.01609636 -0.0917174 -0.06495492 -0.008704469
0.049277253 -0.14020213 -0.051047463 0.025861163 -0.0481835 -0.008352062 0.07392034 0.068772286
0.09024846 0.022254746 -0.07471381 0.04931343 0.13942476 -0.062005345 0.10884348 0.07810082
-0.009199493 -0.1066175 -0.08705905 0.07651222 0.039993558 0.098113865 -0.050542478 -0.03911268
-0.04252754 0.0066560884 -0.0056313705 -0.12064359 -0.029518854 -0.0068777637 0.0016545472 0.053009234
-0.020243771 -0.038913526 -0.031925313 0.26027852 0.008979721 -0.050667096 0.12282086 -0.014978218
0.01783771 -0.048989784 0.028942127 -0.0035674663 0.17399335 -0.012773702 0.09358272 0.004674713
0.025965074 -0.012084882 0.013135679 -0.065357596 -0.02050701 -0.09675346 -0.021909855 0.12238411
0.043889906 -0.02937315 -0.078878395 -0.039906356 -0.029952055 0.08164859 -0.022394188 0.043169852
-0.0035972022 -0.027374031 -0.07255404 0.016359612 0.07293234 -0.05009517 0.002827405 -0.050235227
-0.0076795546 -0.060324304 0.062092874 0.04889113 0.013106425 0.012965239 -0.009438075 0.16240624
-0.036117863 0.16326256 0.0012468771 -0.006193341 0.004319286 0.023877759 -0.019573204 -0.05024887
0.14303617 -0.0069683976 -0.0071075093 0.019722149 0.020131787 0.23638624 -0.10088665 -0.11429258
0.0048520966 -0.011077711 -0.053282302 -0.07900398 0.0121200085 0.0026159582 -0.02668109 0.025086556
-0.05202941 0.083785355 -0.075704575 -0.04091211 -0.13215712 0.06736984 -0.008462891 0.03657909
-0.013104796 -0.08188709 0.0102488585 0.09654797 -0.0154624395 0.056580093 0.03413632 0.0216659

linear2.bias f4 [3]
00000000: 6e33 4f3c d30e d3bd a215 28bb
0.012646539 -0.10305562 -0.002564766
